Model: "sequential"
_________________________________________________________________
Layer (type)                 Output Shape              Param #   
=================================================================
conv2d (Conv2D)              (None, 21, 21, 32)        2432      
_________________________________________________________________
batch_normalization (BatchNo (None, 21, 21, 32)        128       
_________________________________________________________________
max_pooling2d (MaxPooling2D) (None, 10, 10, 32)        0         
_________________________________________________________________
flatten (Flatten)            (None, 3200)              0         
_________________________________________________________________
dense (Dense)                (None, 256)               819456    
_________________________________________________________________
dropout (Dropout)            (None, 256)               0         
_________________________________________________________________
dense_1 (Dense)              (None, 57)                14649     
=================================================================
Total params: 836,665
Trainable params: 836,601
Non-trainable params: 64
_________________________________________________________________
