Model: "sequential_4"
_________________________________________________________________
Layer (type)                 Output Shape              Param #   
=================================================================
conv2d_4 (Conv2D)            (None, 96, 96, 32)        2432      
_________________________________________________________________
batch_normalization_4 (Batch (None, 96, 96, 32)        128       
_________________________________________________________________
max_pooling2d_4 (MaxPooling2 (None, 48, 48, 32)        0         
_________________________________________________________________
flatten_4 (Flatten)          (None, 73728)             0         
_________________________________________________________________
dense_8 (Dense)              (None, 400)               29491600  
_________________________________________________________________
dropout_4 (Dropout)          (None, 400)               0         
_________________________________________________________________
dense_9 (Dense)              (None, 57)                22857     
=================================================================
Total params: 29,517,017
Trainable params: 29,516,953
Non-trainable params: 64
_________________________________________________________________
percentage correct on test set is 92.69778420772101
precision score: [… 1.
 1.         1.         … 1.         0.71698113 0.82352941
 0.91578947 0.94387755]recall score: [… 1.         1.         0.99537037 1.         … 1.         0.66666667 0.77777778
…
