Model: "sequential"
_________________________________________________________________
Layer (type)                 Output Shape              Param #   
=================================================================
conv2d (Conv2D)              (None, 46, 46, 32)        2432      
_________________________________________________________________
batch_normalization (BatchNo (None, 46, 46, 32)        128       
_________________________________________________________________
max_pooling2d (MaxPooling2D) (None, 23, 23, 32)        0         
_________________________________________________________________
flatten (Flatten)            (None, 16928)             0         
_________________________________________________________________
dense (Dense)                (None, 256)               4333824   
_________________________________________________________________
dropout (Dropout)            (None, 256)               0         
_________________________________________________________________
dense_1 (Dense)              (None, 5)                 1285      
=================================================================
Total params: 4,337,669
Trainable params: 4,337,605
Non-trainable params: 64
_________________________________________________________________
percentage missclassified on test set is 0.0
number of epochs is 100The time taken to complete this program was 513.3313271999359