Model: "sequential_4"
_________________________________________________________________
Layer (type)                 Output Shape              Param #   
=================================================================
conv2d_4 (Conv2D)            (None, 96, 96, 32)        2432      
_________________________________________________________________
batch_normalization_4 (Batch (None, 96, 96, 32)        128       
_________________________________________________________________
max_pooling2d_4 (MaxPooling2 (None, 48, 48, 32)        0         
_________________________________________________________________
flatten_4 (Flatten)          (None, 73728)             0         
_________________________________________________________________
dense_8 (Dense)              (None, 400)               29491600  
_________________________________________________________________
dropout_4 (Dropout)          (None, 400)               0         
_________________________________________________________________
dense_9 (Dense)              (None, 57)                22857     
=================================================================
Total params: 29,517,017
Trainable params: 29,516,953
Non-trainable params: 64
_________________________________________________________________
percentage correct on test set is 94.068377369984
precision score: [… 1.
 0.98795181 0.98724657 0.75       0.97826087 0.85714286 0.81481481
 0.875      0.97967914 0.9047619  1.         0.93918919 0.90909091
…
