Model: "sequential_8"
_________________________________________________________________
Layer (type)                 Output Shape              Param #   
=================================================================
conv2d_8 (Conv2D)            (None, 96, 96, 32)        2432      
_________________________________________________________________
batch_normalization_8 (Batch (None, 96, 96, 32)        128       
_________________________________________________________________
max_pooling2d_8 (MaxPooling2 (None, 48, 48, 32)        0         
_________________________________________________________________
flatten_8 (Flatten)          (None, 73728)             0         
_________________________________________________________________
dense_16 (Dense)             (None, 256)               18874624  
_________________________________________________________________
dropout_8 (Dropout)          (None, 256)               0         
_________________________________________________________________
dense_17 (Dense)             (None, 3469)              891533    
=================================================================
Total params: 19,768,717
Trainable params: 19,768,653
Non-trainable params: 64
_________________________________________________________________
